__________________________________________________________________________________________________
Layer (type)                    Output Shape         Param #     Connected to                     
==================================================================================================
input_1 (InputLayer)            (None, 56)           0                                            
__________________________________________________________________________________________________
dense_1 (Dense)                 (None, 56)           3192        input_1[0][0]                    
__________________________________________________________________________________________________
batch_normalization_1 (BatchNor (None, 56)           224         dense_1[0][0]                    
__________________________________________________________________________________________________
leaky_re_lu_1 (LeakyReLU)       (None, 56)           0           batch_normalization_1[0][0]      
__________________________________________________________________________________________________
dense_2 (Dense)                 (None, 56)           3192        leaky_re_lu_1[0][0]              
__________________________________________________________________________________________________
batch_normalization_2 (BatchNor (None, 56)           224         dense_2[0][0]                    
__________________________________________________________________________________________________
add_1 (Add)                     (None, 56)           0           batch_normalization_2[0][0]      
                                                                 input_1[0][0]                    
__________________________________________________________________________________________________
leaky_re_lu_2 (LeakyReLU)       (None, 56)           0           add_1[0][0]                      
__________________________________________________________________________________________________
dense_3 (Dense)                 (None, 56)           3192        leaky_re_lu_2[0][0]              
==================================================================================================
Total params: 10,024
Trainable params: 9,800
Non-trainable params: 224
__________________________________________________________________________________________________
